logistic_model/trained_weights.pth (torch, 32513 bytes, 2 tensors)

linear.weight f4 [10, 784]
000000 37 53 11 bc 4a a6 aa 3a 13 29 ba 3c 97 f1 41 3c
       -0.008869938 0.0013019529 0.022724664 0.011837385
000010 9b 65 0b 3d a8 95 11 bd 80 e9 14 3c dc fa 3a 3a
       0.034032445 -0.035543114 0.009088874 0.0007132718
000020 1c f4 02 3d 2e b4 b1 bc 87 e1 c9 3c 73 fb 11 bd
       0.031971082 -0.021692362 0.024643673 -0.03564019
000030 2f c2 04 bc b5 2e e9 bc cc f4 84 3c a5 77 49 bb
       -0.008102938 -0.028464654 0.01623001 -0.003074148
000040 75 31 b2 3c 2c dc fb 3c 27 bc 0c bd d5 7a 9e bc
       0.021752099 0.030744635 -0.034359124 -0.01934568
000050 93 44 b4 3c 7c ad 01 bc a7 c8 c2 3c 93 0e 8c bc
       0.022005355 -0.007914897 0.02377732 -0.017096793
000060 de 2d c7 bc 93 51 6e 3c 85 11 e1 bc 65 c4 f4 bc
       -0.024313863 0.014545816 -0.027474174 -0.029878804
000070 7e 71 07 3d dc 0b a2 bb 30 0a 92 bc 6a ed 9a 3c
       0.03306722 -0.0049452614 -0.017827123 0.018912036
000080 b6 f7 8f 3b e0 99 c8 3c 31 0b da 3a 5a 9c 2f bb
       0.004393543 0.024487436 0.0016635415 -0.0026796074
000090 30 3a 01 3b ce 9e 5c bc 50 e7 a7 3b 40 2b d1 bc
       0.001971852 -0.013465596 0.00512401 -0.025533319
0000a0 b7 4f 12 3c 6e 07 50 3c b9 36 51 3c e0 3a 5a bc
       0.008930138 0.012697084 0.012769395 -0.013319701
0000b0 91 f7 95 bc 03 cc da 3b 31 93 0a bd a5 75 0e bd
       -0.018306525 0.006677152 -0.03383178 -0.034780163
0000c0 9c 63 15 bc 85 00 ed 3c f1 a6 08 3d a9 25 e1 3c
       -0.009117987 0.028930912 0.033362333 0.027483778
0000d0 93 f5 11 3b c0 80 88 3c b7 69 25 3a 8a 03 ac 3b
       0.0022271618 0.016662955 0.0006310003 0.0052494453
0000e0 4a 92 12 b8 7c b6 b2 bc ed 96 0a bc 5f 5e a5 bc
       -3.4945355e-05 -0.021815531 -0.008458835 -0.020186601
0000f0 66 a1 e9 3c bd 9b 1d bc 53 76 21 bc 97 74 0d bc
       0.028519344 -0.00961965 -0.009854871 -0.008633754
000100 b1 59 10 bd 8f f0 9d bc c8 9e 62 3c 45 92 eb bb
       -0.035241786 -0.019279746 0.013831802 -0.0071890675
000110 af 66 11 bd da 32 92 bb 89 97 34 bc 90 58 21 bd
       -0.035498317 -0.0044616284 -0.011022457 -0.0393911
000120 e4 0d 22 bd 03 97 0b 3c 89 96 81 3c 53 d0 de bc
       -0.03956403 0.008519891 0.015818851 -0.027198946
000130 91 e6 11 bc cf d6 15 bd 6d 82 d4 3c 02 1c ca bc
       -0.008905069 -0.03658181 0.025941098 -0.024671558
000140 83 a8 8c bc 80 b3 e4 3c 25 40 7b bc 5a e1 e4 bc
       -0.017170196 0.027917624 -0.0153351175 -0.027939487
000150 05 1a fa 3c d3 43 f1 3b ae 61 0e 3d 0a 37 a8 bb
       0.030529985 0.0073628216 0.034761123 -0.0051335143
000160 3b 65 f3 bc 37 d2 d1 bb 2b 17 04 bd 5a f9 d4 bc
       -0.029711356 -0.0064032334 -0.032248657 -0.025997806
000170 56 65 40 3a ab 6e e8 3b 1a 68 88 3c 58 32 19 bc
       0.0007339319 0.007093271 0.016651202 -0.009350382
000180 14 0d 1e bc f3 6d 05 bd 61 af f3 bc 09 35 97 bc
       -0.009646673 -0.03257556 -0.029746713 -0.018457906
000190 d6 b3 99 3c f4 a8 64 3c f7 bf 47 bc 06 70 10 bd
       0.01876251 0.013956297 -0.012191764 -0.035263084
0001a0 5d 63 f9 bc 17 44 be 3c c8 a8 de bc e9 a2 e1 bb
       -0.030442888 0.023225827 -0.02718009 -0.0068858755
0001b0 e7 8d 37 bc 0b d7 27 3c 63 5c e5 3c 4a ad 0a bc
       -0.011203266 0.010244141 0.027998155 -0.008464167
0001c0 6e 14 de 3b b1 fc f6 3c 8a 39 e3 bc 71 1a ce 3c
       0.0067773378 0.03014979 -0.027737398 0.025159093
0001d0 6c 58 37 3c d8 3a be 3a 0a 30 18 bb 11 0e c9 3c
       0.011190515 0.0014513386 -0.0023221993 0.02454284
0001e0 c5 63 a2 bc b8 dd b0 bc bb 72 6c bb 45 5c 9b 3c
       -0.019822964 -0.021590099 -0.0036079127 0.018964896
0001f0 a0 0d 3a 3c d1 6e a5 3b 17 ac 07 bd 9c b0 d6 3c
       0.0113557875 0.0050486107 -0.033123102 0.02620726
000200 62 5e 71 3c 86 28 13 3d 46 33 27 bc d8 7d a3 bc
       0.014731975 0.035927318 -0.010205096 -0.019957468
000210 9a 28 9c bc 79 cd ba 3c ca 97 b3 bc c7 9c d0 3c
       -0.01906233 0.022803055 -0.021922965 0.025465382
000220 a9 c0 2d 3c 73 bb 87 3b 14 28 5d 3a 6e 62 7b 3c
       0.010605016 0.0041422187 0.0008436453 0.015343292
000230 13 45 e3 3c 2a ef 9f 3c 73 2f 37 ba 8e 42 a5 bc
       0.027742898 0.019523222 -0.00069879665 -0.020173337
000240 6c c6 08 bb b6 88 9d bb df 92 d4 3c 55 e0 34 3a
       -0.0020870222 -0.004807557 0.02594894 0.0006899883
000250 11 3a 3d bb 71 a5 18 bd 15 5c d4 bb 0a cb 92 bc
       -0.0028873722 -0.037267152 -0.0064807036 -0.017919082
000260 bb 44 b0 bc af 6b 74 3c ef 62 43 3d 23 52 35 3d
       -0.021517148 0.014918252 0.047701772 0.044267785
000270 79 b6 93 3d 2a 88 83 3c 71 80 6c 3b 21 c7 1c 3d
       0.07212538 0.016056139 0.00360873 0.03827584
000280 f5 23 5f 3c 13 c3 8f 3b 8f 6f b4 bc e2 77 1c bd
       0.013619413 0.0043872683 -0.022025852 -0.038200267
000290 b2 5d 9e 3c a1 78 e1 bb 36 19 b3 3c 54 24 4c 3c
       0.019331787 -0.006880835 0.021862607 0.012459833
0002a0 4a d9 08 3c 58 c8 a4 bc 38 05 cd 3c 7b c9 b9 bc
       0.008352587 -0.020115063 0.025026903 -0.022679081
0002b0 c3 f4 e3 3a 05 1b ba 3c e2 65 0f 3b 95 64 22 3b
       0.001739167 0.022717962 0.0021880795 0.002477919
0002c0 7e 0d 0a bd 90 01 43 bd f8 44 08 bc 94 99 a4 bc
       -0.033704273 -0.047608912 -0.008317225 -0.020092763
0002d0 23 3a 02 bb e6 f7 e7 bb 77 07 ae 3c c6 9f 1a 3d
       -0.0019871078 -0.0070791123 0.021243794 0.037750028
0002e0 e1 7a af 3d b7 ab 80 3d f1 62 a6 3d ba b5 48 3d
       0.08568359 0.06282752 0.0812434 0.049001433
0002f0 14 77 3d 3c 81 2d 9c 3c 18 1c 16 bd 0c b3 c2 3c
       0.011564035 0.019064667 -0.036647886 0.023767017
000300 5f 97 21 bb 00 92 b9 3c 59 90 15 bd ea 6d 87 3c
       -0.0024656875 0.022652626 -0.036514614 0.016531903
000310 88 bc e1 ba 14 4a d6 bc 04 bd ae 3c 54 c4 8c bc
       -0.0017222324 -0.02615837 0.021330364 -0.01718346
000320 41 42 d5 3c 51 ac be 3c d2 28 a3 bc 83 74 c7 bc
       0.026032569 0.023275526 -0.019916926 -0.02434755
000330 f1 c4 b3 3a d5 2c 17 bd 54 1e 1d ba 8b f8 ef 3a
       0.0013715309 -0.03690799 -0.0005993594 0.0018308325
000340 7e 8c 0d bb 3d 99 2b 3d 4e 71 9e 3c fe a3 28 3d
       -0.0021598632 0.041894186 0.019341137 0.04117202
000350 1e 2f 85 3d 59 ca ab 3d df 3d f5 3c 7d 49 8e 3d
       0.065031275 0.08388204 0.029936729 0.069476105
000360 7b f3 0e 3d 2f cd d7 3c 38 c0 b0 3c 6d e7 fd bc
       0.03490017 0.026342956 0.021576032 -0.030994141
000370 ac ba 20 bb 47 ff 48 bc 4e 19 90 bc 34 05 0d bb
       -0.0024525328 -0.012267894 -0.017590191 -0.0021517994
000380 13 d6 11 3d 26 78 2f 3c 89 2d 8a 3c ce 08 c1 bc
       0.035604548 0.010709798 0.016867416 -0.023563769
000390 13 89 0f 3c 53 70 08 3a 3a a9 17 bb 9c 60 ac bc
       0.008760708 0.0005204726 -0.0023141638 -0.02104216
0003a0 65 54 68 bc 40 64 ec bc 29 fc ec bc 42 83 21 3d
       -0.0141802775 -0.028856397 -0.028928833 0.039431818
0003b0 4c ab 25 3d c3 2f 8e 3b 40 b1 f0 3c fc bb b4 3c
       0.040446565 0.0043391897 0.029381394 0.022062294
0003c0 4b 67 f8 3c 50 77 d5 3c 67 4a ba 3c 3b d9 b1 3d
       0.030322691 0.02605787 0.022740556 0.086840115
0003d0 03 59 9e 3d a9 33 63 3d af 51 e0 3c a8 5b 01 3c
       0.077318214 0.05546919 0.0273827 0.007895388
0003e0 0a cb 50 3b f5 39 02 3c 63 c9 ba 3c e0 e2 42 bc
       0.0031859302 0.007948388 0.022801107 -0.0118949115
0003f0 50 37 d4 3c fe 42 eb 3c 1d bf e7 bb e8 98 97 3c
       0.025905281 0.028718468 -0.007072343 0.018505529

linear.bias f4 [10]
000000 75 c4 2d bd 1c 41 f6 3d 29 d2 31 bd 23 1e 09 bd
       -0.042423684 0.120241374 -0.043413315 -0.033476006
000010 49 e9 a0 3c a7 68 19 3d 42 e3 ef bc f8 5b 8e 3d
       0.019642489 0.03745332 -0.02928317 0.069511354
000020 24 af 92 bd 25 7a ac bc
       -0.07162312 -0.021054337
